save/2TemplateIntModel.pth (torch_old, 3313 bytes, 6 tensors)

seq.0.weight f4 [10, 4]
000000 54 21 3d 3f df 90 e4 be 53 24 a5 3e ee ec 02 3f
       0.7387898 -0.44641778 0.32254276 0.51142776
000010 7c d0 4f bf 8a 87 29 3e 28 07 76 be 7c 38 09 bf
       -0.81177497 0.1655561 -0.24026167 -0.53601813
000020 fd 7d 85 3e 44 5c 14 c0 43 5b dc 3d 4d 14 8f 3e
       0.26072684 -2.3181314 0.10759594 0.27945176
000030 8a f5 f0 3d 41 49 c7 3e cb 23 36 be 52 42 a6 be
       0.11765583 0.38923076 -0.17787091 -0.32472473
000040 73 e6 90 bf 3a b7 98 3f eb cd 09 bf ba 2e 3d bf
       -1.1320328 1.1930916 -0.5382983 -0.73899424
000050 d5 c5 3b 3f f3 20 42 be 4f af 22 3f 86 a2 07 3f
       0.7334874 -0.18957882 0.6354875 0.52982366
000060 c7 05 49 be 21 00 61 3f 6c 8e 1a 3f df 39 3a bd
       -0.1963111 0.8789082 0.6037357 -0.045465346
000070 ff 07 5c 3e b2 db 6d 3f ff 85 14 3f 31 3c 3e bd
       0.21487425 0.92913353 0.5801696 -0.04644412
000080 64 df 44 3f 24 e1 26 bf 75 e6 2f 3f 26 ef d5 3e
       0.7690337 -0.6518729 0.68711025 0.41784018
000090 b2 3e cb 3e 8c f7 5d 3f 13 cb 92 3e 53 18 08 3f
       0.3969627 0.8670585 0.28670558 0.53162116

seq.0.bias f4 [10]
000000 0b 6d d7 3e b6 ad 62 3f 3d c0 39 be fa 83 de 3e
       0.4207538 0.8854631 -0.1813974 0.43460065
000010 b4 04 5d be ca 64 a1 bf 33 62 88 3d 35 7e bb bf
       -0.21583825 -1.2608883 0.06659355 -1.464789
000020 25 44 49 be 0a 11 df bf
       -0.19654901 -1.7427075

seq.2.weight f4 [15, 10]
000000 72 11 8f bd 23 78 11 3f 88 50 0e 3e 8e 00 e5 3d
       -0.06985749 0.5682394 0.13897908 0.111817464
000010 75 9f 4e be 1a b9 21 bf 33 61 95 3e c6 31 a8 be
       -0.20178016 -0.6317307 0.2917572 -0.32850474
000020 20 68 73 bd a1 50 66 bb b8 39 d0 3d 9a f4 af 3e
       -0.059425473 -0.0035143273 0.10167259 0.34366304
000030 f5 4b 28 bd 6b 58 74 3e fc c2 f4 be 97 50 11 be
       -0.041088063 0.23861854 -0.4780501 -0.14190899
000040 98 06 83 3e f4 ec c3 3c 40 4e cb bc f9 ca 13 3f
       0.25590968 0.023916699 -0.024817586 0.57731587
000050 12 26 cd be d6 62 0e bf 94 cb 13 bc f2 6a f6 3d
       -0.40068108 -0.5561956 -0.009020705 0.12032117
000060 0f a7 a8 3e 70 1a a0 3d c8 09 b1 3d ff f8 bc 3e
       0.32939956 0.078175426 0.08644444 0.3690872
000070 38 83 00 bf 50 d9 98 3e dc 96 c8 3d 2a 0a e0 3e
       -0.50200224 0.29853296 0.09794399 0.43757755
000080 cd 38 92 be 26 a4 62 3e 8d fc 12 bf 82 a2 d1 be
       -0.2855896 0.2213293 -0.5741661 -0.40944296
000090 65 1f 07 be 8a db 73 3d 06 18 0a bd 17 ca 07 3f
       -0.1319557 0.05953554 -0.033714317 0.5304274
0000a0 76 91 0d bf 80 c5 c7 be 2a a2 bc bd 4f c7 3e 3e
       -0.5530008 -0.39017868 -0.09210618 0.18630718
0000b0 50 2f d1 be cb e6 20 3e 06 09 14 3f 6d d3 66 3f
       -0.4085641 0.1571304 0.5782627 0.9016636
0000c0 63 d8 89 bf 76 2a 57 3f 24 89 5f be 4a 0e f4 be
       -1.0769161 0.84049165 -0.21829659 -0.47667152
0000d0 0a b4 1e 3f cd 89 ef be e8 51 3f bf 29 eb 61 be
       0.6199347 -0.4678482 -0.74734354 -0.22062363
0000e0 11 d1 f8 bd 79 b3 ba be 03 79 e8 3e f1 c8 1c be
       -0.12149251 -0.36465052 0.45404825 -0.15311028
0000f0 67 08 f7 be aa 19 c8 be 03 d4 b3 3e 69 90 f8 3c
       -0.48248598 -0.3908208 0.3512269 0.030342298
000100 ac a9 ab 3f aa 23 4d bd 05 98 ea 3e f0 39 b6 3f
       1.3411155 -0.05008284 0.45819107 1.4236431
000110 0b 46 aa be 28 86 6b 3f 5c ee 7a 3c 39 d1 6a 3e
       -0.33256564 0.9200158 0.015315618 0.22931375
000120 b7 0a 86 bf 16 f2 18 bf 81 ff 55 bf 30 f4 89 40
       -1.047202 -0.59744394 -0.83592993 4.311058
000130 0a 5d de be 54 5d 20 3f e4 f2 52 3e 38 59 45 40
       -0.43430358 0.6264241 0.20600468 3.0835705
000140 d2 86 21 3e 7a 0a 8e bf a8 54 42 bf c7 bf 6d 3d
       0.15774086 -1.1096947 -0.75910425 0.05804422
000150 5e 5d 90 bd 05 d8 07 3f 5a 39 6e 3e 47 cf 27 be
       -0.070490584 0.53063995 0.23264065 -0.16387664
000160 fb 08 65 3d 9c 93 a4 3e 95 83 36 be 5a 49 25 be
       0.055916768 0.32143867 -0.17823632 -0.16141263
000170 c5 71 0b 3f e0 e7 40 bd 2b f5 b1 3f 65 2e 82 be
       0.54470474 -0.047096133 1.3902944 -0.2542602
000180 1e 48 16 bf 5a 8c 11 3e f3 08 b2 3e 70 d7 0b bf
       -0.5870379 0.14213696 0.34772453 -0.54625607
000190 bb 2b 1a bd 72 a1 78 be 59 a7 c9 be be c2 74 3e
       -0.03763936 -0.24280336 -0.3938549 0.23902413
0001a0 a8 a0 93 be 1e a8 79 bd 22 d7 31 3e 86 ad 0c 3f
       -0.28833508 -0.060951345 0.17367223 0.54952276
0001b0 d1 0b 71 3f 54 c6 3d 3f 84 a9 d2 3e a6 54 56 be
       0.94158655 0.7413075 0.41144955 -0.20930728
0001c0 09 8c 6c 3e 19 27 6f 3d b4 7d 38 3e 25 f2 0f 3f
       0.23100294 0.058386896 0.18016702 0.5622886
0001d0 15 22 37 3e ba 22 66 3d 67 71 31 3d eb d2 f6 bc
       0.17884095 0.05618546 0.04332104 -0.03012987
0001e0 c4 d9 91 3e 0b f5 e4 be dd 2e c5 be e4 fe 7e 3e
       0.28486454 -0.44718203 -0.38512316 0.2490192
0001f0 10 26 2c 3f 76 33 77 3e f5 15 2b bc 3b 78 0f 3e
       0.6724558 0.24140725 -0.010442247 0.14010708
000200 46 70 04 3d 12 34 01 bf 90 5b 2b bf 8d dc 35 bf
       0.032333635 -0.5047008 -0.6693659 -0.7103966
000210 71 b5 3e be d9 60 5a 3d fb a0 6b 3e 90 86 f4 bd
       -0.18623902 0.053315017 0.23010628 -0.11939728
000220 d7 8d 50 3e 3e c6 b4 3e 81 45 a1 bf f1 b2 54 3f
       0.20366608 0.35307497 -1.2599336 0.8308554
000230 d5 56 2c 3e c6 c3 84 3e 58 04 13 bf f5 55 13 bf
       0.16829999 0.25930613 -0.57428503 -0.57553035
000240 03 51 d0 be 73 21 88 3f 9e 2f 51 3e f2 c7 c4 be
       -0.40686807 1.0635208 0.20428321 -0.38433796
000250 4f f1 0c 3e 0f 6c d5 3f
       0.13763927 1.6673602

seq.2.bias f4 [15]
000000 c7 8e a9 3e 98 b7 a1 3e 20 0d 74 be e5 e7 59 3d
       0.33116743 0.31585383 -0.23833132 0.053199667
000010 3c 81 81 be f6 c9 4b be 29 e2 1f be 6f 42 72 bf
       -0.2529391 -0.1990126 -0.15613617 -0.9463262
000020 6b ee f1 bc da 3b c9 bd d5 79 fb be bb b2 74 3e
       -0.029532632 -0.09825869 -0.49116388 0.23896305
000030 6b 1e 43 3c cf 56 9b ba c6 9e 23 bf
       0.011909108 -0.0011851433 -0.63914144

seq.4.weight f4 [21, 15]
000000 fb 3b b0 bc 81 0e 27 3e 29 2d e5 3d 2f 42 66 bd
       -0.021512976 0.16314127 0.11190254 -0.05621546
000010 0e 0f e1 3e e2 66 16 be f4 b1 8c be fd 56 55 be
       0.43956798 -0.14687684 -0.27479517 -0.20833965
000020 ab fa bf 3e 5c e7 1a bf cf 60 07 be 46 fd 9b 3d
       0.37495932 -0.60509276 -0.13220523 0.076166674
000030 5a 0f 9d be 06 e9 ba 3e 5c 73 9d be a6 40 c3 bc
       -0.30675775 0.36505908 -0.30752075 -0.023834538
000040 4e 20 1e 3e 10 af 29 3e 51 1e 72 bb 2c f1 15 3f
       0.15442011 0.16570687 -0.003694434 0.58571124
000050 ef ef 01 be 4a ef a6 be e0 da 55 be 0e eb c1 3e
       -0.12689184 -0.32604438 -0.20884275 0.37874645
000060 3d 5e 0d bf 89 41 f8 bd 68 43 80 3c 1a 1e 8b be
       -0.5522192 -0.12121875 0.015657142 -0.27171403
000070 2a d5 8d 3e 55 50 a6 be b4 11 cb bd 42 9c 54 3e
       0.27701694 -0.32483163 -0.09915486 0.20762733
000080 7c 19 13 3d 43 30 0c 3e e8 5e 30 3f 29 ff 11 be
       0.035912976 0.13690285 0.68894815 -0.14257492
000090 41 b0 bf be 11 f3 2f be 55 fe b4 3e dd 76 e1 be
       -0.3743916 -0.17182566 0.3535029 -0.44035998
0000a0 b7 9a 22 be 7b bd 5b 3d 14 94 5e be 19 57 8d 3e
       -0.15879332 0.0536475 -0.21736175 0.27605513
0000b0 40 c0 c3 be b9 91 4f be 29 69 5e 3e 72 1e 38 be
       -0.38232613 -0.20270433 0.21719803 -0.17980364
0000c0 e4 97 91 3e bb d1 3e 3f 53 31 1a be 01 b6 d5 be
       0.28436196 0.74538773 -0.15057878 -0.4174042
0000d0 10 0c 2a be dc 4f 91 3e 66 5f c5 be 35 c9 1a be
       -0.16606164 0.2838124 -0.38549346 -0.15115817
0000e0 9e 9d 91 3d 27 79 2a be 15 c7 c2 3e df 0c cd be
       0.07110141 -0.16647778 0.38042513 -0.40048882
0000f0 d2 9a 26 be 3a 6f 61 3e 4b b7 f9 bb fa 06 5d 3e
       -0.16269997 0.22015086 -0.007620727 0.21584693
000100 00 59 2d 3f 67 f9 23 be 21 3c c3 be 69 76 48 be
       0.6771393 -0.16013108 -0.38131812 -0.1957642
000110 3c c2 98 3e 54 a1 d2 be 48 b4 1c be d7 a1 c0 3d
       0.2983569 -0.4113871 -0.15303147 0.094058685
000120 87 79 45 be 9f 80 9b 3e 2f c4 bc be 94 ab 17 3c
       -0.1928464 0.30371568 -0.36868426 0.009257216
000130 1e 3f 94 3d 51 08 cb bd 6c c4 79 3d 11 8c 1e 3f
       0.07238601 -0.099136956 0.060978338 0.61932474
000140 4b 02 ef bd b8 65 a6 be 19 6c 58 be 78 7f c1 3e
       -0.11670359 -0.3249948 -0.21134986 0.37792563
000150 43 ae 14 bf d9 da c6 bd 9b 06 a6 3c 38 1e 76 be
       -0.580784 -0.09709711 0.020266822 -0.24034965
000160 35 6b ca 3e 8c 14 a2 be 35 e5 19 3d 40 5e 98 3b
       0.39534917 -0.316563 0.037572104 0.0046499074
000170 b9 da b7 bd e9 60 a6 bd 89 ae f5 3e 0f 94 ee bd
       -0.08977265 -0.08123953 0.47984722 -0.11649334
000180 43 85 89 be e7 07 53 be 3e ca d3 3e ed d3 33 bf
       -0.26859483 -0.20608483 0.41365236 -0.7024525
000190 dd ba 86 bd 84 b2 03 bd ec 8e 9c be 17 be f2 3e
       -0.0657861 -0.032152668 -0.3057779 0.47410652
0001a0 5f e4 9b be 1d 5d 54 bc 6f 48 9b 3c 9a 42 b2 bd
       -0.3044767 -0.012961653 0.018955437 -0.087041095
0001b0 8f ae 4a 3e 5f 9d e1 3e d0 8b 04 3e ac 81 13 3e
       0.19793151 0.44065377 0.12943959 0.14404935
0001c0 7c 35 ea bd 5b 75 dd 3d 5d 73 74 3e 08 8d 2c bf
       -0.114359826 0.108133994 0.23872133 -0.67402697
0001d0 b1 bc 8f 3d d6 fa dd bc 26 56 75 be 98 1c 06 3f
       0.07018412 -0.027097147 -0.23958644 0.5238738
0001e0 23 c9 78 3d 32 53 64 bd d7 2a 1a 3e f9 df 0e 3e
       0.060738694 -0.055743404 0.15055405 0.13952626
0001f0 a3 1b 14 3e 18 c1 90 3c 4a cb d3 3d 16 89 d0 bd
       0.14463668 0.0176702 0.10341509 -0.10182397
000200 75 9e 8e 3d f5 a0 de 3d 31 08 e0 be 37 0a 74 3e
       0.06963817 0.10870544 -0.4375625 0.23832022
000210 d8 06 c8 bd 6c 69 10 be 57 66 b1 3e b8 80 d5 3c
       -0.0976693 -0.14102715 0.34648392 0.026062354
000220 4c 4e 7c bc 16 97 99 ba 1e 34 b1 3c 73 21 a0 3d
       -0.015399527 -0.0011718001 0.021631297 0.0781888
000230 f2 ee 95 3c 13 2c 2f 3d 62 75 8f bc 48 39 70 3d
       0.018302415 0.04276664 -0.017512027 0.058648378
000240 d1 2e 4b 3d 99 ac 41 be e4 48 7b 3d 04 b3 95 bd
       0.049605194 -0.18913497 0.06134881 -0.07309535
000250 c7 b7 ab bc 90 c7 e9 3d 79 29 34 3d b9 d8 81 bd
       -0.020961655 0.11415017 0.043984864 -0.06340165
000260 7c 8d 56 3d a3 c3 a8 3d 9e 0d a6 bb 69 e5 af bb
       0.052381024 0.0824044 -0.0050675413 -0.005367924
000270 e4 69 8b ba 23 10 98 3a 24 79 79 bb e8 3a 82 3a
       -0.0010636416 0.0011601489 -0.003806659 0.0009935768
000280 cc 8f dc 3a 95 7d a9 3d d2 0f fd 3b 21 28 0c bc
       0.0016827523 0.08275906 0.007722833 -0.008554489
000290 5c dd 73 bb 85 f9 94 bc 17 72 1b 3d 4f 79 0c bd
       -0.0037210798 -0.018185386 0.0379506 -0.034295376
0002a0 4f 3b a3 bd 3c 59 84 bd 33 83 ab bb 3e 76 ab bc
       -0.079702966 -0.064623326 -0.005234146 -0.020930406
0002b0 27 57 f5 3b 9b 73 21 bd 11 66 87 bd ee 9b 29 3e
       0.007487196 -0.03941689 -0.066112645 0.16563389
0002c0 b3 2e e3 bd 9a 48 97 3d ec 7c 30 3b a8 e8 a1 bd
       -0.110928915 0.073868945 0.0026929928 -0.07905704
0002d0 78 0f 12 3d 08 b1 d1 3c 82 b4 26 be b7 0e e1 bd
       0.035659283 0.02559711 -0.16279796 -0.10989135
0002e0 6d 73 b8 bd ad bc 43 bc f4 12 89 bd a2 9a 62 3c
       -0.09006391 -0.011946839 -0.06693068 0.013830813
0002f0 65 7b 3a bd 75 25 c6 bd 37 e7 9f 3e 8d cf 03 be
       -0.045527834 -0.09675113 0.3123109 -0.12872143
000300 20 62 05 3e 91 3b 70 3d 6b 46 31 be 31 ba 1a 3d
       0.13025713 0.058650557 -0.17312019 0.037775222
000310 88 57 0b 3e db f0 5a bd a4 82 82 be 11 8e 83 be
       0.1360761 -0.053452354 -0.25490296 -0.25694326
000320 ff 58 7b bd c0 66 ad bd f3 89 a7 3c f5 c2 96 bd
       -0.06136417 -0.08466864 0.020451522 -0.07361404
000330 1e 67 22 be 9f 82 dd 3e 4f dd f0 bd f6 9b de 3d
       -0.15859649 0.43263718 -0.11760961 0.10869591
000340 fb dd 96 3d e2 9f 82 be 82 87 f3 be e9 99 44 3d
       0.07366558 -0.25512606 -0.47564322 0.047998343
000350 ab 8d f7 3e 30 0d 84 be 06 2d 8b be 21 d4 cd be
       0.48350272 -0.2579131 -0.27182788 -0.40200904
000360 04 e1 92 3e f5 90 1a bf 32 75 e3 be f3 49 c3 be
       0.28687298 -0.60377437 -0.4442535 -0.38142356
000370 74 6d c1 be 61 3c ce 3e b4 2d 07 3f 17 e8 8e bc
       -0.3777882 0.4028044 0.5280411 -0.017444653
000380 26 28 4d be b5 ce f3 be 4f 6d 38 be e1 68 4b 3e
       -0.20034847 -0.47618642 -0.18010448 0.19864227
000390 df f2 f5 be d6 ca e3 bd db 8b e6 be 1c b9 87 3e
       -0.48036858 -0.11122672 -0.45028576 0.26508415
0003a0 02 d1 35 bf 89 2f d8 be 51 d8 ff be b9 f8 a1 be
       -0.71022046 -0.42223766 -0.49969724 -0.31635073
0003b0 38 c2 a9 3e d8 a1 d0 3e c5 f8 fb 3d d1 23 4c be
       0.3315599 0.40748477 0.123033084 -0.19935538
0003c0 9f 40 f4 be ca a8 84 be d6 df 87 3e db 63 2d bf
       -0.47705552 -0.25910026 0.2653796 -0.6773049
0003d0 60 f1 0e bd ef 30 f8 be 0a 36 88 3e a7 b3 52 bf
       -0.034898162 -0.48474833 0.2660373 -0.8230538
0003e0 3d 60 d6 be 27 ec 0c bf c8 41 a7 be 88 03 9c 3e
       -0.418703 -0.5504784 -0.32667375 0.30471444
0003f0 67 e4 9f 3e 80 8d a9 3d df 47 b9 bd 56 16 8f be
       0.31228945 0.08278942 -0.090469114 -0.27946728

seq.4.bias f4 [21]
000000 dc 42 cb bd aa b3 43 bd 49 ef d4 bd a0 ef 06 be
       -0.09924862 -0.047778763 -0.103972025 -0.13177347
000010 d6 db f4 bd b0 67 1b be 8d a5 9f bd 7a 0e 07 3e
       -0.11955993 -0.15176272 -0.07795248 0.13189116
000020 fd f6 12 3d f8 de 16 3d 8e 6a 32 bd 3b af 09 bd
       0.035880078 0.036833733 -0.04355865 -0.03361438
000030 6c 53 2e be 0d ec 65 be cc 87 2e be 7a 51 ea bc
       -0.1702401 -0.22453327 -0.1704399 -0.028603304
000040 53 3c 1b 3e b0 6c 19 3d b1 60 f6 bb 09 11 06 bc
       0.1515973 0.037457168 -0.0075188507 -0.008182772
000050 05 32 1c be
       -0.15253456
