save/PH PhRcPh-T0T1-mask 11p05.pth (torch_old, 3273 bytes, 6 tensors)

seq.0.weight f4 [10, 3]
000000 f2 63 f9 3d d3 b1 ae bf c5 62 4e bf b6 db c0 3e
       0.12177266 -1.3648018 -0.8061946 0.37667626
000010 5c 8b 61 bd 4e 2f 96 bf 4d 95 26 bf 3a 4b fe 3c
       -0.055064544 -1.1733186 -0.65071565 0.03104173
000020 f8 4e ed 3e 95 44 13 3f a5 f7 00 3f a6 08 a0 be
       0.4634931 0.5752652 0.50377876 -0.31256598
000030 87 71 f5 be 7a d6 1a 3e 3b ff 03 3d 68 47 ea be
       -0.47938177 0.15120879 0.03222583 -0.45757604
000040 00 59 23 3f bd cd 87 3f e7 3e c0 bd 80 b7 85 bd
       0.6380768 1.0609661 -0.09386998 -0.065291405
000050 72 35 41 3e 1b 33 f2 be 5f c7 24 3f 4c cb 0e bf
       0.18868044 -0.47304615 0.64366716 -0.55778956
000060 62 cd 56 3f 1f 6d 65 be f6 4c 1f 3f 35 36 23 3e
       0.8390714 -0.22404908 0.6222681 0.15938647
000070 36 37 dd be d9 1d 01 3f
       -0.43206185 0.5043617

seq.0.bias f4 [10]
000000 76 d5 72 3d 43 b8 26 bf 95 f3 0c 3f 9c ea 43 3d
       0.059285603 -0.6512491 0.55059177 0.047831163
000010 cd 84 5a 3e fd 30 1d bd 92 c3 f3 3d 30 fb c4 3d
       0.21339722 -0.038376797 0.119025365 0.09618223
000020 d6 c0 06 bf a1 7c ec 3e
       -0.52637994 0.46188834

seq.2.weight f4 [15, 10]
000000 53 43 f7 bd 82 21 fa bd 2c 95 c4 be 21 5e 09 be
       -0.12073388 -0.12213422 -0.3839506 -0.13414814
000010 7e 1b 0e be 79 9c b9 3e 64 d4 e6 bd ed 67 17 3f
       -0.13877675 0.36252192 -0.11270979 0.59142953
000020 03 4d 1e bf 6d 03 92 bf f7 48 fa bd a9 fe fa 3e
       -0.6183626 -1.1407295 -0.12220948 0.49022415
000030 f1 2f 48 be 3b 3c 41 bd 26 22 1c bd da dd e2 be
       -0.19549538 -0.04717658 -0.038118504 -0.44309884
000040 4b 6b 06 3d 06 63 34 3f 82 7d a9 be f0 07 a9 be
       0.032817166 0.704636 -0.33103567 -0.33013868
000050 00 e0 03 3f 90 5e 2f 3f a0 19 84 bf 21 44 fb bd
       0.5151367 0.68503666 -1.032032 -0.12268854
000060 6b c5 d8 be 3f 63 b6 bf 27 0e 11 bd 64 23 2c 3e
       -0.42338118 -1.4249038 -0.035413887 0.16810375
000070 09 67 c6 3e 54 cd 05 be 94 f6 0c 3c c8 f7 cc bb
       0.38750485 -0.13066608 0.008603711 -0.0062551238
000080 4b 4e 7e 3e bd a3 26 3c 7e 73 4d be 25 e5 c7 3d
       0.24834554 0.010170874 -0.20063588 0.09760503
000090 e5 09 c0 3e a6 01 d2 3d ac b4 54 3e 60 3e 61 3e
       0.3750755 0.10254221 0.20772046 0.2199645
0000a0 44 0d 99 3e e0 49 7d be 9b e3 e2 be ef fd b3 3e
       0.29892933 -0.24735212 -0.44314274 0.35154673
0000b0 f1 cc ba 3e 6e c3 13 be f8 8e e2 3d a4 9d a0 3d
       0.36484483 -0.1443002 0.110624254 0.078425676
0000c0 c8 2a 80 be 51 d3 c0 be a4 e0 98 3e 15 d3 1e be
       -0.2503264 -0.37661222 0.29858887 -0.15510209
0000d0 c5 84 2e 3f d8 8d 26 be 8c 9a a9 3e fa 2a 22 3f
       0.6817134 -0.16265047 0.33125722 0.6334683
0000e0 f4 ac 88 3e 2d 0b 0d 3e d1 41 ed be bd fb 1b 3f
       0.26694453 0.13773794 -0.46339276 0.60931
0000f0 b0 ef 86 be 32 18 00 3f a5 1a e4 3e fd 26 60 3c
       -0.26354742 0.5003692 0.44551578 0.0136811705
000100 aa a0 ca 3d 56 50 c7 3d 60 e5 94 3c 3e 33 0e be
       0.098939255 0.0973212 0.01817578 -0.13886735
000110 44 09 4c 3e 39 d7 8c 3c 68 76 48 be 5f 1c a2 3e
       0.1992541 0.01719247 -0.19576418 0.3166227
000120 c1 69 da bd a2 57 e0 3c cf 93 e6 3c b1 bc dd be
       -0.10664702 0.027385537 0.028146653 -0.43308023
000130 f0 e6 08 bd bd f0 67 3d 19 51 b3 be 06 9b ac 3b
       -0.033423364 0.05662607 -0.3502281 0.0052675037
000140 33 dc 29 3f c5 60 90 3e 1d 48 20 3f c6 0b 2c bf
       0.6635162 0.2819883 0.62610036 -0.67205465
000150 e4 c3 ab 3e a5 a7 ad 3d 11 6a 17 3e 97 6e 7a be
       0.3354789 0.08479241 0.14786555 -0.24456249
000160 36 59 94 be fa b2 8d bd e3 50 ba be 1d 8c c0 be
       -0.28974313 -0.06918903 -0.36389837 -0.37606898
000170 b1 63 12 bf 6f 6a 6a 3c 91 d1 91 3d 20 db 05 3e
       -0.57183367 0.014307602 0.0712005 0.13071871
000180 0d 4b 93 3c 9d 23 84 be 4c da 45 3f d8 b9 6a be
       0.017980123 -0.2580842 0.7728622 -0.22922456
000190 b6 68 64 bf 1b de 93 3f 3a 15 3b bf f8 d2 c2 3e
       -0.89222276 1.1552156 -0.73079264 0.3805158
0001a0 44 66 c5 be 8e a5 19 3e 65 eb 46 be 96 1a 89 be
       -0.38554585 0.1500456 -0.19425733 -0.26778096
0001b0 25 ee 80 3f 0f 7c 4a bf 9a 80 e7 3d 81 b1 ca be
       1.0072676 -0.7909555 0.11303826 -0.3958855
0001c0 0c c8 7e 3e 89 86 b0 be 9b 45 e9 3d 5d d6 f4 3e
       0.24881 -0.34477642 0.11390229 0.47819796
0001d0 3a d1 58 bd fe 65 c5 3e f2 ba b0 bd fb bd 9c be
       -0.05293391 0.38554376 -0.08629407 -0.30613694
0001e0 09 22 63 bd 30 e2 3e be 57 4b a9 be e9 96 d4 bd
       -0.05545238 -0.18640971 -0.33065292 -0.10380346
0001f0 6b 25 6f 3e 25 bc fd bd c3 45 91 3c df fe dc 3e
       0.23354118 -0.12389401 0.01773346 0.431632
000200 27 ec fd be af c9 8a be da cd 8e 3d 18 8f 27 bf
       -0.49594232 -0.27106997 0.06972857 -0.6545272
000210 90 61 24 bf d8 56 25 3e fa 1e 5a be 1e b3 af 3e
       -0.6421137 0.1614641 -0.21300879 0.34316343
000220 53 0e 53 3e 5f e3 18 be 7f 44 29 3e e9 b7 bf be
       0.20610933 -0.14930485 0.16530035 -0.37445
000230 c3 fc 4d 3e 0e 65 06 bf cd 3e cc be 2e 2f d2 3d
       0.20115952 -0.5249795 -0.39891663 0.10262905
000240 d1 9c a5 3e 71 6e 74 3a 73 35 8e bd a6 8a 94 3e
       0.32346204 0.00093243184 -0.069437884 0.2901203
000250 58 b3 32 3e 94 d1 91 3e
       0.17451227 0.28480208

seq.2.bias f4 [15]
000000 d7 f0 bf be 39 2f 10 be ee fc ce 3d 68 08 00 be
       -0.37488434 -0.14080514 0.10106836 -0.12503207
000010 07 6c 30 3e d9 72 c3 bc 91 ad 0e be d1 bb 97 3e
       0.17228709 -0.023858475 -0.13933398 0.2963548
000020 34 fc ad 3d c4 c8 8b bd 66 88 2f bf 0f 24 91 bc
       0.084953696 -0.068254024 -0.685675 -0.01771739
000030 9a 6f e0 3d 27 3a be bd ba 90 a4 be
       0.10958786 -0.092884354 -0.32141668

seq.4.weight f4 [21, 15]
000000 3e 8a a2 3e f8 ad 95 3b 22 9e 9f be 23 b8 f3 3b
       0.31746095 0.004567858 -0.31175333 0.0074377223
000010 3b 70 c6 3e 1a 49 11 bf a4 0b c3 3d 2e 52 63 3e
       0.387575 -0.5675217 0.09523705 0.22199318
000020 d3 f3 0c bd 3a 3a 50 3e 96 58 31 be 5e ad 92 3c
       -0.034412216 0.20334712 -0.17318949 0.017904934
000030 ce 04 eb 3d e9 af 4a bc 3f 6d 04 be 96 8d b8 3e
       0.11475526 -0.012371042 -0.12932299 0.36045521
000040 75 80 b5 3d c4 d1 c8 be b7 3b 9a 3c ef ec 97 3e
       0.08862392 -0.39222538 0.018827302 0.29672953
000050 bc c9 e4 be 2e 99 91 3d cc cd 69 3e f1 30 ff bc
       -0.4468516 0.07109295 0.22832412 -0.031151267
000060 45 a3 3e 3e fa ac ec bd 33 ca 3c be 5a 73 05 3e
       0.1861697 -0.1155643 -0.18436508 0.13032284
000070 7e 6b 93 3d 22 69 12 be c6 21 91 3e c6 3e 4d 3e
       0.07198237 -0.14297917 0.2834608 0.20043477
000080 5b b8 e7 be 4d f0 9b bd d1 c1 87 3e 85 ac 0c bf
       -0.4525784 -0.07614193 0.26515058 -0.54950744
000090 21 a3 9e bd 83 d2 bb 3d 9d 5e bb bd ff 55 89 3b
       -0.07745958 0.09171011 -0.091489054 0.0041911597
0000a0 7a e6 26 bd 1c 36 10 bc 64 99 3d ba 96 fc db 3c
       -0.040747143 -0.008801963 -0.0007232635 0.02685384
0000b0 48 e2 0c 3d e6 ff a7 3e 0f df 52 3e b5 77 ed be
       0.034395486 0.32812423 0.20592903 -0.46380392
0000c0 0d ea bd bc 12 76 52 3e ef 26 0c bf d3 eb a4 be
       -0.023182893 0.20552853 -0.5474691 -0.3221117
0000d0 9b 8b fd 3b 8a d1 fe bd de 52 75 bc 62 49 dc bb
       0.0077375895 -0.1244231 -0.01497337 -0.006722615
0000e0 46 5f 0c bd 9e 10 8c 3c 96 1d a7 bc 06 7e 0d be
       -0.034270547 0.017097767 -0.02039985 -0.13817605
0000f0 d7 47 b4 3e 1f de fb 3d 26 33 e0 be cc 03 2f bd
       0.3521106 0.122982256 -0.43789023 -0.04272823
000100 ba f6 2a 3e 23 52 f0 be 94 bc 97 3c de 10 91 3e
       0.16695681 -0.46937665 0.018522538 0.2833318
000110 d0 57 5f bd c2 85 b0 3c 59 06 65 bd fd 9e 17 be
       -0.054527104 0.021548156 -0.055914257 -0.14806743
000120 6a 62 a5 3d 45 3c 3a 3e 56 70 c2 bb c4 e1 b7 3e
       0.080754116 0.18187054 -0.0059338016 0.35914433
000130 75 be 8d 3d d6 bf c4 be da e3 04 3e 1f 69 87 3e
       0.069210924 -0.3842761 0.12977543 0.2644739
000140 15 d3 00 bf ad 8c d5 3c 96 aa 6c 3e 2c dd da bc
       -0.50322086 0.026068056 0.23111948 -0.026716791
000150 9f 85 0f 3e 78 de ea bd 6b 45 13 be 8d a0 29 3e
       0.14015816 -0.11468214 -0.1438195 0.16565152
000160 49 dd cb 3d d0 9f 44 be 3e cc b0 3e c0 be ce 3c
       0.09954316 -0.19201589 0.34530824 0.025237441
000170 eb 72 91 be bf fe c6 bd 68 8f 94 3e 76 eb e9 be
       -0.28407988 -0.09716558 0.2901566 -0.45687455
000180 f5 0e a2 bb 08 e0 70 3e 94 fe 13 bc 7a 8b a6 3e
       -0.0049456307 0.23522961 -0.009032864 0.32528287
000190 92 70 5c be 7e 3f e9 bd 81 03 60 3e 95 7e f0 3d
       -0.21527317 -0.11389063 0.21876337 0.117428936
0001a0 e9 f7 bf be b5 4f a3 3e dc 15 ac 3e 4a da 57 3f
       -0.37493828 0.3189675 0.33610427 0.8431746
0001b0 c2 ee fc 3d e9 11 9b be a9 23 96 bd 97 de df 3e
       0.12350227 -0.30287102 -0.073310204 0.4372451
0001c0 97 88 f1 3d fa 10 ab be 7e ff f4 be 91 58 27 bf
       0.117936306 -0.3341139 -0.47851175 -0.65369517
0001d0 3b ce b3 3e ec c4 9d ba ea 7d e2 be a4 06 2d be
       0.3511828 -0.0012036837 -0.4423669 -0.16897064
0001e0 79 9e 21 3e 65 c2 50 3e 9d b2 14 3f b8 79 08 3d
       0.15783109 0.20386656 0.5808504 0.033319205
0001f0 86 b4 80 be 95 3e 2e 3d df e6 67 3e 78 5b 00 3e
       -0.25137728 0.04254015 0.22646664 0.12534893
000200 4a be 1e be ce 15 2c be 8f 91 f5 be 4f af fa 3d
       -0.15502277 -0.16805193 -0.47962615 0.12240469
000210 ce c2 53 3e 74 13 29 bd c2 99 8e be 05 18 5f 3d
       0.20679781 -0.041278318 -0.27851683 0.054466266
000220 99 e6 f7 3d 9d ff 88 3e 19 5a 9f be 18 f0 f8 bd
       0.1210453 0.26757517 -0.31123427 -0.12155169
000230 d4 89 6d bd e7 56 98 3e ff 46 69 be f0 2e 72 bd
       -0.05799277 0.297538 -0.22780989 -0.059126794
000240 6a 21 07 be 10 ce 5d be 42 c4 71 3d a3 63 c8 3d
       -0.1319634 -0.21660638 0.059025057 0.09784629
000250 e4 00 1d be a4 cf 85 3d f5 23 61 bc 1f a7 91 3c
       -0.15332371 0.06533745 -0.013741483 0.017779885
000260 fb 8d 40 3b c0 7f ec bd 93 f4 87 bd 9b 7c 8b bb
       0.0029381502 -0.11547804 -0.06638446 -0.0042567975
000270 6d d7 5c 3c de bd 33 bc 99 17 2a 3b f7 f3 fc bc
       0.013479096 -0.010970561 0.0025954007 -0.03087805
000280 2c f9 25 3b b0 b9 f0 3b 8a fa 94 3b 72 d0 3e 3d
       0.002532552 0.0073463544 0.004546468 0.046585508
000290 35 3c 9b 3d 80 49 c3 bd 16 83 7c bd 0f 5f 83 be
       0.07579843 -0.095355034 -0.06164845 -0.2565846
0002a0 98 af 1d be fd 31 1e 3e 3b 76 68 bc d1 ae 63 be
       -0.15399015 0.15448757 -0.014188345 -0.22234656
0002b0 3b 40 17 be 51 8f e8 3c 55 ca 02 3e 8f 59 59 3e
       -0.14770596 0.028388651 0.12772496 0.2122557
0002c0 bb 9a e3 b9 59 d3 0f be 70 9a b0 bd 8e 16 00 3d
       -0.00043412097 -0.14045466 -0.086232066 0.03127151
0002d0 b7 b3 f0 bd 39 8c f7 bd 08 0d e1 be 41 1d f7 3d
       -0.11753028 -0.12087292 -0.43955255 0.120661266
0002e0 db 6f 03 3e 38 27 87 3d b3 1b 95 be 87 ec 03 3e
       0.12835638 0.06599277 -0.29122695 0.12883197
0002f0 ca 45 02 3e 3d 3d 89 3e 4e 9d a9 3e 71 4e 16 be
       0.12721935 0.26804534 0.33127826 -0.1467836
000300 84 99 08 be 1b af 31 3e d9 3e 02 bc 48 95 5e be
       -0.13339812 0.17351954 -0.007949554 -0.21736634
000310 c3 3f 92 be 12 0b 22 bf 20 a6 c0 3d 22 e5 66 3e
       -0.2856427 -0.6329814 0.09406686 0.22548345
000320 16 9d 38 3d ef cc 3a be 0f 8f ad 3c a0 42 62 3e
       0.045071684 -0.18242238 0.02118638 0.22095728
000330 07 f2 a0 3e 3a 1d 00 3f 67 13 9a be 28 98 f8 3b
       0.31434652 0.50044596 -0.30092928 0.007586498
000340 1f 30 8e 3e 6f 03 60 3e ed 4c a2 3e 18 82 5c be
       0.27771088 0.2187631 0.31699315 -0.21534002
000350 37 b1 86 bd e4 10 41 3d f9 5f 62 3e c7 31 88 ba
       -0.0657677 0.04713525 0.22106923 -0.0010390811
000360 00 74 29 3d 33 08 3a be cb 76 e3 be 04 08 3f bd
       0.04137039 -0.1816719 -0.4442657 -0.046638504
000370 4d 14 44 bf 73 60 88 3e 7d 6a 55 3e 43 39 62 3e
       -0.76593477 0.26636085 0.20841403 0.22092156
000380 e7 9c 8e 3e 4e ea 0c 3f 55 4f 47 be 2f ed c4 bd
       0.27854082 0.5504502 -0.19463857 -0.09615552
000390 06 80 a3 3e 74 6e 9f 3d 5f 2d 84 bd 69 cc 66 bd
       0.31933612 0.07784739 -0.06453966 -0.056347284
0003a0 20 6f 43 bd fd d8 a9 be 5a c3 d7 3d 22 61 56 bf
       -0.0477134 -0.3317336 0.10535307 -0.8374196
0003b0 ba 83 82 3e b4 db 01 3e 6a 94 c0 3d 7c 3a 90 3e
       0.25491124 0.12681466 0.09403308 0.2816962
0003c0 d0 54 20 3f 54 70 0d be ee 02 a8 bd 8c b8 fb bd
       0.62629414 -0.13812381 -0.08203684 -0.12291059
0003d0 9e e2 59 be fd 84 4c be d1 6d 3e be 82 ac a2 be
       -0.21277854 -0.19972606 -0.18596579 -0.31772238
0003e0 cf f8 8a be 56 76 95 3d ce 91 56 bf 36 ff ae 3e
       -0.2714295 0.072979614 -0.8381623 0.34179085
0003f0 e7 5c fa 3d f4 68 81 3c 9f ea c7 3e 3d 05 3b 3f
       0.12224751 0.015797116 0.3904619 0.7305487

seq.4.bias f4 [21]
000000 94 11 8f 3e 41 d0 95 3e 6e 33 bd 3e f9 7a be 3e
       0.279431 0.29260448 0.369533 0.37203196
000010 5e 21 ab 3e ba 49 99 3e cf 95 72 3e 91 5a c7 bd
       0.33423895 0.2993906 0.2368996 -0.09734071
000020 0b c6 0b be 8c a6 a8 3d 33 63 f7 3c 8d d6 2c 3d
       -0.13649766 0.08234891 0.030198669 0.0421968
000030 bf 08 52 3c c8 5d a6 3d 29 ff af be 84 05 88 be
       0.012819468 0.08123356 -0.3437436 -0.26566708
000040 da e7 1a bd ac 86 cf bd 64 8a af bd e1 d5 68 be
       -0.037818767 -0.101331085 -0.08571318 -0.22737838
000050 12 fb 94 be
       -0.290978
