save/REL PhRcPh-T0T1-mask 11p05.pth (torch_old, 3201 bytes, 6 tensors)

seq.0.weight f4 [15, 21]
000000 e0 b5 a1 3e 1d 72 87 3d b3 3a da 3d 89 97 79 3e
       0.31584072 0.06613562 0.10655727 0.24374212
000010 b2 7e 2b bd 88 4b 93 3e 5e a0 00 3e 74 82 f8 bd
       -0.041868873 0.28768563 0.12561175 -0.12134257
000020 24 17 38 3d 42 c9 b2 bd 54 76 0d 41 52 e7 1c 3e
       0.044943944 -0.08729793 8.841389 0.15322617
000030 00 ac a1 3e 7a f2 9b 3e 4f 93 32 3e 2e 9e de 3d
       0.31576538 0.30458432 0.17439006 0.10870014
000040 fe db 32 3e a2 d6 3e 3e 2d 5f b0 3e 2d 40 42 3e
       0.17466733 0.18636563 0.34447613 0.18969794
000050 e4 79 14 3e 87 e1 26 bf 6d 3b ea be c4 39 c9 be
       0.14499623 -0.6518788 -0.45748463 -0.39301884
000060 fa a7 a0 be 70 d3 90 be 84 8d 8d be 57 a0 e1 be
       -0.31378156 -0.28286314 -0.2764703 -0.44067642
000070 35 65 65 3d 3f 90 8a 3e ef 7b 01 3e 3e 52 08 bf
       0.05600472 0.27063176 0.12644933 -0.5325049
000080 ff f6 b1 3d 44 f5 b3 be fe 81 55 be 6c f5 98 3e
       0.08689689 -0.3514806 -0.2085037 0.29874742
000090 0b af 08 3f ac 35 9b 3e d6 10 dc 3e a0 02 6a 3e
       0.53392094 0.30314386 0.42981595 0.22852564
0000a0 d2 4f 10 3f 06 dc a0 3e 29 1e 9d 3e bf a9 57 bd
       0.56371796 0.31417865 0.30687073 -0.052652117
0000b0 38 ff d8 be ba 7f 99 be 1b 03 cf be dc 7b ab bc
       -0.42382216 -0.2998026 -0.40432057 -0.020933084
0000c0 1f 57 bb 3d 53 63 c0 3e 68 35 de 3d 87 4e bb 3e
       0.091474764 0.37575778 0.1085003 0.3658335
0000d0 3f 74 dd 40 ce 73 e8 be 26 b9 80 3d 13 72 b6 bd
       6.92044 -0.45400852 0.06285314 -0.08908477
0000e0 57 41 5b be 1f 8a 53 bc 02 dd 7a 3e 40 05 24 3e
       -0.21411644 -0.012911349 0.2449837 0.16017628
0000f0 15 0f 4e bc 8d 76 7b 3e 3b 5c 84 bd 8a eb 89 be
       -0.012576838 0.24556942 -0.06462904 -0.26937515
000100 b1 11 7e be 06 c7 9c 3d a9 9f 2d 3e af 79 05 3e
       -0.24811436 0.07655148 0.16955437 0.130347
000110 73 db 8f be 24 bb 1b bf 2d fe 28 3f 75 ed 5e 3e
       -0.28097114 -0.6083243 0.6601284 0.2177027
000120 0a be 3a 3e 0a 97 f3 c0 5c 4b 24 bd 32 91 07 bf
       0.18236557 -7.6121874 -0.04011093 -0.52955925
000130 6c c5 eb be 2b 8b 92 bc c9 35 bf be 60 4c dd ba
       -0.46049058 -0.017888626 -0.37345722 -0.0016883723
000140 15 31 77 be c6 b2 99 be d3 c2 0c be a6 7c 31 be
       -0.24139817 -0.30019206 -0.13746195 -0.17332706
000150 c1 a7 97 3e 72 11 b2 3c 31 63 6e 3b 80 dc c6 3e
       0.29620174 0.021736834 0.003637504 0.38840103
000160 d1 fb 32 3e 0a e4 8d 3e 7e a1 61 3e 76 a2 8e be
       0.17478873 0.27713042 0.2203426 -0.27858323
000170 ca 90 ef 3d 81 69 38 3e be 60 6d 40 ae a2 81 be
       0.11697538 0.18008997 3.7090297 -0.25319427
000180 33 0f 7c 3d 53 91 8c 3e b9 d2 70 3d 7c e2 2f bd
       0.061537933 0.27454624 0.05879471 -0.0429406
000190 ec 1b 4b 3e bf ea 2a bd 72 eb 08 3e 48 20 ff 3d
       0.1983487 -0.041727778 0.13371065 0.12457329
0001a0 6c 64 96 3c 08 0c 29 3d 71 51 ff 3e 5b 39 cb 3e
       0.018358432 0.04127124 0.49866822 0.39692196
0001b0 c2 4f 15 3f fc 09 e0 3e 2d 2e b9 3e 17 22 bc 3e
       0.58324826 0.43757617 0.36168042 0.36744758
0001c0 dd 3b f6 3c 5b dc 51 be 7b a6 89 bd 8c 28 78 40
       0.030057842 -0.20494215 -0.06721207 3.8774748
0001d0 ad 64 93 3e 0a 44 8a 3e 5a a7 14 3e 79 ad 3a be
       0.28787747 0.27005035 0.14516965 -0.18230237
0001e0 5e 53 bc be eb 47 84 be 6b 8b 9e bd 1b f2 d0 be
       -0.36782354 -0.2583612 -0.077414356 -0.40809712
0001f0 f4 49 f0 bd a1 59 17 be c0 99 b6 bf 0b a4 3b bf
       -0.117328554 -0.14780284 -1.4265671 -0.73297185
000200 b2 85 fe 3d 51 1e 0b 3f 62 61 36 be fe 3e 0e bf
       0.12427844 0.54343134 -0.17810586 -0.5556487
000210 ed bd 8c bf 76 83 05 40 03 a0 0d 40 d2 44 07 40
       -1.0995461 2.0861487 2.2128913 2.1135755
000220 37 81 27 c1 f9 3d fc bf 64 68 26 c0 fb 73 10 c0
       -10.469047 -1.9706413 -2.6001215 -2.257079
000230 45 df 22 be a8 3d 03 bf f1 af 04 bf c3 29 87 be
       -0.15905483 -0.51265955 -0.51830965 -0.2639905
000240 d1 cd c0 be 04 58 f7 be 7f 42 9d 3c b4 5a 8c 3e
       -0.37657025 -0.48309338 0.019196747 0.2741295
000250 94 6f 69 3e 0d 1c 55 3e d7 d5 18 bb 1b 6b 91 3e
       0.2279647 0.20811482 -0.0023320818 0.28402027
000260 f3 7d 9a 3d 63 59 2b 3e 3a 04 3e bf 31 00 e9 be
       0.07543554 0.16733317 -0.742252 -0.4550796
000270 82 22 d1 be 11 34 84 40 27 5a ed 3e 1a 21 d0 3e
       -0.4084664 4.131356 0.46357843 0.40650254
000280 7e 48 ea 3e 49 36 59 3e 77 58 d4 3d 79 59 52 3e
       0.45758432 0.21212114 0.10368436 0.20541944
000290 6e 1a 15 bc f4 6b f8 3d 3a e9 4a bd 1c 00 c6 3d
       -0.00910054 0.121299654 -0.04953883 0.096679896
0002a0 73 a8 b5 3b 14 44 56 3d 56 38 59 3a 61 d0 0b 3e
       0.0055437624 0.052311018 0.0008286288 0.13653709
0002b0 d3 7a e4 3d 9c 17 42 3e 82 bd cf 3e c4 94 b2 3e
       0.11156239 0.18954319 0.4057427 0.34879124
0002c0 d5 45 7d 3c bf 2f 1d bc 72 63 88 40 fd 9a 2f 3e
       0.015458544 -0.009593903 4.2621393 0.17148967
0002d0 f6 b6 39 3d ad cd 1b bc 00 1b c2 bf 7e df fb be
       0.0453405 -0.009509486 -1.516449 -0.49193949
0002e0 35 50 fd be 43 6a da bd 6a 18 03 bf 00 5b 32 bf
       -0.49475256 -0.10664799 -0.5120913 -0.69670105
0002f0 fe f9 ad bf 5f 74 d4 be 1f bc 05 be 87 50 cb be
       -1.3591917 -0.41495034 -0.13060044 -0.39709875
000300 d1 5b 00 bf ea f0 8d be 12 9e c9 bd 83 85 cf be
       -0.501401 -0.27722865 -0.09844603 -0.4053155
000310 2c f8 23 3f d6 bf c0 3e 20 a2 0e 3f c1 ea 98 40
       0.64050555 0.3764636 0.55716133 4.7786565
000320 c0 ea 97 be 02 e6 ec be 61 63 78 be 1b 5d 41 bf
       -0.29671288 -0.46269232 -0.2425666 -0.7553269
000330 8d f1 67 3e c9 8c 82 3d 38 c3 b7 bc 43 24 62 3d
       0.22650738 0.06374509 -0.022431955 0.055210363
000340 13 ab c3 3d cc 3a 14 bf 3c 78 33 be c1 32 a3 bc
       0.09554114 -0.57902217 -0.17526335 -0.019921662
000350 cc d4 39 be 0d 0e 53 3e 4e 4a 58 3e 82 fb b7 3d
       -0.18147582 0.20610829 0.21122095 0.08983518
000360 47 61 bc bd 57 ed c9 be 17 70 26 be 08 11 f3 bc
       -0.09198242 -0.39438888 -0.16253696 -0.029671207
000370 b5 20 e8 40 e1 a2 01 3f b9 e3 6b 3d 75 df 7a 3e
       7.2539926 0.5063916 0.05759022 0.24499305
000380 72 98 6c 3e 59 37 05 be 7c 02 9d 3d 22 db ce 3e
       0.23105028 -0.13009395 0.076664895 0.4040156
000390 84 63 9a 3e 88 1d 65 3e 34 25 e8 3d 75 f2 4e be
       0.3015405 0.22374547 0.11335221 -0.20209678
0003a0 cf 14 62 3d d9 9e c6 be b1 57 03 bf 65 08 95 be
       0.055195626 -0.38793066 -0.5130568 -0.29107967
0003b0 78 c9 a4 be 56 5e c4 3d f5 1c 6e be 4d 84 16 bf
       -0.32184958 0.09588306 -0.23253234 -0.58795625
0003c0 27 eb 29 bf d9 ce 28 3f b7 9a 44 3f 0c 04 15 3f
       -0.6637444 0.65940624 0.76798576 0.582093
0003d0 a3 94 7e 3e fa 42 88 bd 1b d0 44 be 9c ee 0e be
       0.24861388 -0.066534 -0.19220011 -0.1395821
0003e0 60 eb 05 be 31 91 41 3e 3d c7 45 3e 5e 1a 15 be
       -0.1307807 0.18903042 0.19314285 -0.1456084
0003f0 64 09 5b bf f9 2c b4 be 63 d4 69 bd 40 e3 3d bd
       -0.85561204 -0.3519056 -0.057087313 -0.0463593

seq.0.bias f4 [15]
000000 30 14 7a be 82 18 6c be c2 65 10 3e 0a ee 11 3e
       -0.24421763 -0.23056224 0.14101318 0.14250961
000010 b8 84 25 3d fe a4 a8 bd 8c d0 97 3e 21 2a f9 bc
       0.040409774 -0.08234595 0.29651296 -0.030415596
000020 3e 7d 64 3d 99 66 9d 3e c9 1e c5 be 22 02 87 be
       0.055783503 0.30742338 -0.3850005 -0.26368815
000030 c6 b0 34 3c c7 d8 40 be 07 df 28 3e
       0.011028474 -0.18832694 0.16491328

seq.2.weight f4 [10, 15]
000000 1e 2b 10 3d 21 f4 04 be ff 11 0d 3f 7a ce b5 3e
       0.03519737 -0.12983753 0.55105585 0.35509092
000010 39 cb 04 bf f0 0c 3b bf e5 6d dc bd 94 20 22 bf
       -0.51872593 -0.73066616 -0.10763148 -0.6333096
000020 e3 32 b9 3d 56 4c 89 3f 13 38 b9 3c 19 00 10 3d
       0.09042909 1.0726421 0.022609746 0.035156343
000030 5a d1 83 bf e8 dc 1a 3f 38 85 4b 3d 42 80 a1 be
       -1.0298264 0.60493326 0.049687594 -0.31543165
000040 d0 10 01 be 5f a0 bb be 4f 98 cb 3a 8d ea c8 be
       -0.1260407 -0.3664579 0.0015533062 -0.39241448
000050 d3 0a 4d bc eb d4 2a 3f cc cc ad be 6c 84 2c bf
       -0.012514788 0.6673114 -0.3394531 -0.6738956
000060 91 20 c0 3d 6c 08 d5 3d 44 24 85 3e 73 62 7e 3e
       0.093812115 0.10401997 0.2600423 0.24842243
000070 b3 c5 15 3e 5d e3 c6 be df 73 7d be 19 b6 bb be
       0.14626198 -0.3884534 -0.24751233 -0.36662367
000080 c5 9c 4e 3e 60 dc 87 bd 61 8e 28 3b 1e 9d f8 bd
       0.2017699 -0.0663383 0.002571963 -0.12139343
000090 50 c1 ed be f4 37 76 be 83 4e 02 bc 0a 12 ec bc
       -0.46436548 -0.24044782 -0.007953289 -0.028817195
0000a0 3e 4b 8e be 94 2a 82 3e 04 bc d9 bc 85 36 d2 3c
       -0.2779178 0.2542311 -0.02657891 0.025660763
0000b0 17 ca 92 3e 4d bc 14 3e 0d ad 9c 3d f2 b3 87 3e
       0.28669807 0.14524956 0.07650194 0.26504475
0000c0 1a 73 b0 3d e4 c6 a3 bc 74 7d 41 3d e8 59 0c be
       0.08615704 -0.0199923 0.047238782 -0.13706172
0000d0 f3 46 20 3e 49 c8 be ba b4 6e 1d bc b7 a7 b7 3e
       0.15652065 -0.0014555539 -0.009608913 0.35870144
0000e0 cc b2 4c 3e 93 7f 1a 3e d5 50 fd bd e8 71 20 3c
       0.1999008 0.15087728 -0.12368933 0.009792782
0000f0 57 a4 07 be a9 27 e2 3e 73 06 71 3b 95 2f 93 3e
       -0.13246284 0.44170883 0.0036777526 0.2874724
000100 07 f6 2a 3e c7 c1 d0 bd a6 03 8f 3e 7c 0e 00 bd
       0.16695414 -0.1019321 0.2793247 -0.031263813
000110 89 71 dc 3e 41 c8 d4 3e d0 95 23 be 75 2d cd 3e
       0.4305537 0.41559032 -0.15975118 0.40073743
000120 55 4e 97 bd a1 e2 a0 be e9 aa ca 3e fd 8f e2 be
       -0.073879875 -0.31422904 0.3958352 -0.4425048
000130 7a a1 f6 be ea ed 85 be c8 49 e3 3e 05 6e 56 be
       -0.48170072 -0.26158077 0.44392228 -0.20940407
000140 f4 83 1c bf c0 d1 5e 3f 19 c5 48 b8 e0 23 89 bf
       -0.61138844 0.87038803 -4.7867277e-05 -1.0714073
000150 b4 28 ad 3d 35 55 eb bc e8 2d 94 be 25 46 60 3e
       0.08455029 -0.028727153 -0.28941274 0.21901758
000160 b1 6d 8a be 22 37 0b be 8b 37 a1 be d7 f7 0c 3e
       -0.27036813 -0.1359525 -0.31487688 0.13766418
000170 55 1e 59 be 79 bc cc 3e e4 2e 3b bd ad 14 81 3e
       -0.21202977 0.39987543 -0.045699015 0.25211087
000180 53 fe 51 3e af bd 6d be 9d 68 9f 3d 5e ec 16 3e
       0.20507173 -0.2321689 0.07783625 0.14738604
000190 d1 c1 dd bc 74 25 ed 3c 81 e8 04 be ef b4 8f 3e
       -0.027069958 0.028948523 -0.12979318 0.2806773
0001a0 d7 a3 15 be 70 4b eb be d8 46 71 bd c3 b1 19 be
       -0.14613281 -0.45955992 -0.058905452 -0.15009217
0001b0 97 d2 b1 3e 4a c0 21 3c d0 05 86 be 25 2e 6a 3f
       0.3473098 0.009872505 -0.2617631 0.9147666
0001c0 22 22 d2 be 72 6d 27 be ff 33 db bd 2d 0c 0e be
       -0.41041666 -0.16350344 -0.10703277 -0.13871832
0001d0 93 10 5f be 2f e4 77 3e a5 2b a2 be 3e 56 23 bf
       -0.21783666 0.24208139 -0.31673923 -0.6380347
0001e0 b9 e9 98 3e 32 0f a3 3e a8 1e 58 3e 4e 55 8d 3c
       0.29865816 0.3184753 0.21105444 0.01725259
0001f0 e6 37 ca 3e 17 8f b5 3e 4d b5 a5 3d 67 ef 04 bc
       0.39495772 0.3546073 0.08091221 -0.008113719
000200 e0 c5 ca bc ad 05 37 be 00 83 23 3e 55 97 b0 be
       -0.024752557 -0.17873259 0.15967941 -0.34490457
000210 f9 04 54 3e 3a 18 18 3e e3 cb 22 be 8b 48 9f 3d
       0.20705022 0.14852992 -0.15898089 0.07777508
000220 2f b4 3e be 7e 1f a0 bd 22 57 e7 3c 7e ec 91 bc
       -0.18623422 -0.07818507 0.02823979 -0.017812964
000230 55 62 0b 3d 4c ae 76 be ed b1 c6 3e aa cb 58 3e
       0.034029324 -0.24089926 0.38807622 0.21171442
000240 c0 ef 98 3e 3a 7b 7b 3e 73 9c 60 be 60 71 8c bd
       0.29870415 0.24558726 -0.2193468 -0.06857562
000250 56 15 df bc 52 05 b5 3d
       -0.027231853 0.088389054

seq.2.bias f4 [10]
000000 bc 14 0d 3d 7b 88 dd be 4c ba f5 3d 88 f2 c9 bd
       0.034443602 -0.4326819 0.11998424 -0.09860712
000010 e3 d2 da 3e e1 60 ed bd d9 9c 5a be fe 73 9d 3c
       0.4273902 -0.11590744 -0.21348895 0.019220348
000020 e5 91 1d 3e 6f 1b bc 3e
       0.15387686 0.3673968

seq.4.weight f4 [3, 10]
000000 e8 a6 00 3f 6d e1 df be 5d d6 91 3d 15 db 06 3d
       0.5025468 -0.43726674 0.07120965 0.032923777
000010 b1 e8 30 3e 99 62 15 bf 43 3a e5 bc a1 78 b4 be
       0.17276265 -0.58353573 -0.027981883 -0.35248283
000020 ff b6 7f bd a7 40 48 3e 6a 85 54 be 61 0a 81 be
       -0.062430378 0.19555913 -0.20754018 -0.2520323
000030 6d 46 d1 be 09 39 06 bd 5f 2b 58 3e 81 85 b5 bd
       -0.40874043 -0.032769237 0.21110295 -0.088633545
000040 ce e4 bb 3d 65 f4 1c 3b 79 9d a8 3e 4e e8 c0 3d
       0.091745004 0.0023949381 0.32932642 0.094193086
000050 7a a3 16 3e fe 35 35 3e 69 cc b3 bd 0c 88 b3 3e
       0.14710799 0.17696378 -0.087792225 0.35064733
000060 f5 6f 9a 3d 67 b7 c9 be 9d 17 bb be 41 cd 61 3b
       0.07540885 -0.39397737 -0.36541453 0.0034454616
000070 58 9f 33 be a3 cb 10 be
       -0.17541254 -0.14140181

seq.4.bias f4 [3]
000000 95 23 8c bd 49 e1 d3 bd fc 39 e0 3d
       -0.06842724 -0.10345704 0.1094856
