save/templateModel0.pth (torch_old, 3233 bytes, 6 tensors)

seq.0.weight f4 [10, 2]
000000 ad 11 bb 3f 2d a1 99 bf 99 b4 ac bf 8a ff 74 3f
       1.4614769 -1.2002312 -1.3492614 0.9570242
000010 e6 04 a9 be 78 20 be 3f 9d ae 8b 3e b7 78 65 3f
       -0.3301155 1.4853659 0.27281657 0.8963732
000020 bf 4d c3 3f 7e 11 93 3e 76 08 b4 3f 3d 5e 07 3f
       1.5258101 0.28724283 1.4065082 0.5287817
000030 98 8f f7 3e 7d c6 d6 be 8e 57 83 3e 50 4a 7e be
       0.4835174 -0.4194831 0.25652736 -0.24833035
000040 bd ce 71 3f da d6 df 3d 1f 7b be 3f b2 4b 29 3f
       0.9445608 0.109296516 1.4881324 0.66131127

seq.0.bias f4 [10]
000000 88 c7 16 bd 62 a8 20 3d c6 c9 73 bd 9f 96 8f bf
       -0.03681138 0.039223082 -0.059518598 -1.1217841
000010 6b ed 75 bf 40 ea 92 be 00 c4 b2 3f a2 a9 88 3e
       -0.96065396 -0.28694344 1.3966064 0.2669192
000020 94 0d 8e bf 4a 59 30 3c
       -1.1097894 0.010763476

seq.2.weight f4 [15, 10]
000000 f9 05 f3 bd ea 90 13 3f 6f a4 71 3f ed b7 7e bf
       -0.118663736 0.57642996 0.9439153 -0.994994
000010 71 49 d5 bf 8d a8 e9 be 58 29 57 3f e3 fa 95 3e
       -1.6663038 -0.45636407 0.8404746 0.29292974
000020 f8 ec 65 bf e4 9a 89 be 4f 69 cc 3f 1b 53 8f be
       -0.8981471 -0.26875985 1.5969638 -0.27993092
000030 54 38 27 3f 16 9e b0 be 63 73 4e bf 4f 66 2a bf
       0.65320325 -0.3449561 -0.80644816 -0.6656236
000040 3d 61 c8 be b0 66 60 be 78 c0 ac 3e 8f 90 83 be
       -0.39136687 -0.21914172 0.33740592 -0.25696227
000050 91 0f 56 3e b2 a0 a5 bd f9 35 40 bf 43 68 ef 3f
       0.20904376 -0.08087291 -0.75082356 1.8703693
000060 c3 50 b1 3f 0e a2 fa 3e 17 a6 73 bf 0e f2 03 bf
       1.3852772 0.48951763 -0.9517531 -0.5154122
000070 9e be 9d 40 14 d0 bf 3d 6d 17 24 bf fb f2 41 3e
       4.9295187 0.0936586 -0.64098245 0.18940346
000080 59 a2 de 3e c6 64 58 3e 8b e0 b2 be e0 62 d4 3d
       0.43483236 0.21132192 -0.34936938 0.103704214
000090 17 bb 5f 3d 6b 0a 95 3e f0 03 81 be af 75 47 bc
       0.054621782 0.2910951 -0.25198317 -0.012174054
0000a0 32 88 95 bd c1 ed de ba 83 fa 64 3e 5f a3 c1 bd
       -0.07301368 -0.0017008112 0.22361188 -0.09454989
0000b0 27 18 21 bf 2b bb 28 3e 8d 00 b9 bb cb e0 37 3e
       -0.6292748 0.16477649 -0.0056458176 0.17956845
0000c0 ba 05 b7 be ab 40 7e 3e 8c 49 77 be 29 a7 18 bf
       -0.35746557 0.24829356 -0.2414915 -0.59630066
0000d0 14 21 18 bf 27 97 1d 3d 34 16 6e 3f de f3 e5 3d
       -0.59425473 0.03847423 0.9300263 0.112281546
0000e0 b1 c5 87 be cf f9 97 3e 7d 1d a2 bc 38 74 88 3e
       -0.26518014 0.29682776 -0.019789452 0.26651168
0000f0 a7 e1 03 40 08 0d f4 3d 02 30 50 c0 6b c2 89 3e
       2.0606477 0.11916548 -3.2529302 0.26906142
000100 37 fc aa bd 23 39 98 bf 8e ee 8d be a8 1c 18 bf
       -0.083488874 -1.1892437 -0.27721065 -0.59418726
000110 e3 25 59 3c 5e 0c f4 bf 65 85 1d 3f af 2a c9 be
       0.013253662 -1.9066274 0.6153167 -0.39290377
000120 ba 15 5b bd 14 1b e5 3e 3f 18 36 3f 15 38 3c 3e
       -0.053487517 0.4474722 0.71130747 0.18380769
000130 a1 40 11 3f c0 ac 8e 3e 0a 4c 55 3e ae 77 1b 3f
       0.5673924 0.27866173 0.20829788 0.6072949
000140 24 4a 9f bd 66 92 b6 3e 24 60 4f 3f bd ca 12 bf
       -0.07777813 0.35658568 0.81006074 -0.57340604
000150 11 3b fe 3e 7c 22 84 bd c5 11 5f 3e f6 2c 2f 3e
       0.4965444 -0.0645189 0.21784122 0.17106995
000160 5c 43 96 3e aa 39 2e be b4 cb 59 bf 1d a6 e3 3e
       0.29348266 -0.17014185 -0.8507645 0.44462672
000170 9a 8b 01 3f 6b 90 32 40 b9 f2 58 3f cb c4 26 be
       0.5060364 2.7900646 0.84745365 -0.16286008
000180 ca 35 42 bf 00 49 4a be 1a fc 43 3f 13 9f 5a 3e
       -0.75863326 -0.1975441 0.7655655 0.21349744
000190 87 96 63 be 69 d0 07 3e 66 a6 42 3f 86 54 8d 3e
       -0.2222539 0.13263096 0.76035154 0.2760355
0001a0 83 59 7e bf 06 28 9c be 55 ad 6b be 63 e5 6c be
       -0.99355334 -0.30499285 -0.2301534 -0.23134379
0001b0 75 29 8b bd d6 2d ad be 8c d8 67 bf 7d 09 11 bf
       -0.06795017 -0.33824033 -0.905648 -0.566551
0001c0 c2 4f 73 bf 92 17 a7 3e be 14 45 3f fc e8 e2 3e
       -0.95043576 0.3263517 0.76984775 0.44318378
0001d0 e6 52 84 be 0f f2 f1 ba 66 eb 45 3e d3 e5 eb 3e
       -0.25844496 -0.001845898 0.19328079 0.4607378
0001e0 64 1a f9 bc 02 c9 f3 3f 8c 91 4d 3f ee aa c2 3f
       -0.030408092 1.9045718 0.8030021 1.5208414
0001f0 7d 57 7a bf 6d ac 2a c0 c0 4c bd bf e5 d0 df bf
       -0.97789747 -2.666774 -1.4789047 -1.7485625
000200 a7 93 f3 3e 73 fe b0 bf 91 45 ef 3d a2 f9 16 3f
       0.47573587 -1.3827652 0.116831906 0.5897466
000210 d8 fa 46 3f 87 14 b6 40 05 f8 08 bf 7d b9 09 3f
       0.7772651 5.690006 -0.5350345 0.5379866
000220 47 d3 8b bf 5d b6 d6 be 39 21 c8 3e 92 27 34 be
       -1.0923852 -0.41936007 0.39087847 -0.1759322
000230 3f 6b db be 93 37 bc 3e 53 24 aa 3e 2e 77 5d 3f
       -0.4285526 0.3676115 0.33230838 0.8650998
000240 5b 68 26 3f 7d 94 e0 3e de 0c c2 3d b7 4e b2 3d
       0.65002984 0.43863288 0.094751105 0.0870642
000250 29 b7 c9 be 3c 81 76 3e
       -0.39397553 0.24072737

seq.2.bias f4 [15]
000000 6a 9b da 3e b8 71 b9 be 01 96 67 bf eb f0 c1 3d
       0.42696697 -0.36219573 -0.9046326 0.094697796
000010 6e ed 66 be 01 e9 91 3e ae 95 3a bf aa d0 0b ba
       -0.2255151 0.2849808 -0.72884643 -0.00053335226
000020 c2 b3 67 be 5b 31 ff be 8b b4 76 be a0 20 05 be
       -0.22627166 -0.49842343 -0.24092309 -0.13000727
000030 ed 11 35 bf 02 e1 1a bf ca d9 b3 3e
       -0.7073048 -0.60499585 0.35127097

seq.4.weight f4 [21, 15]
000000 95 0c a8 be 31 9a ed be 4d 0f 14 be 14 7f 94 3d
       -0.328221 -0.464067 -0.14458962 0.07250801
000010 c5 0e 9e be db 50 f1 bc 20 84 06 bd 16 6d bb be
       -0.30870643 -0.0294575 -0.032840848 -0.36606663
000020 be dd 21 be e0 7e a9 3e 5c 13 a6 be 45 24 6b be
       -0.15807244 0.3310461 -0.32436645 -0.22963054
000030 46 17 23 bf e5 d9 a6 be c9 56 48 3e e5 c3 a5 be
       -0.6370739 -0.32588115 0.19564356 -0.32376018
000040 87 d7 19 bf a7 d0 33 be 5f c2 88 3d d6 8e 19 3c
       -0.60094494 -0.17560063 0.06677698 0.009372434
000050 5b 1d 70 bd f6 bf 9a bc da f9 b3 be b8 0c 0a be
       -0.058621746 -0.018890362 -0.3515156 -0.13481414
000060 54 47 fd 3e 83 12 b0 be 09 6f 9e bd 0b 90 1e bf
       0.49468482 -0.34389123 -0.07736022 -0.6193854
000070 d1 57 f1 be cf 6c b8 3d ad b0 bc be da 47 23 bf
       -0.4713731 0.090051286 -0.36853543 -0.6378151
000080 8d ff 14 be 69 38 55 3d 8e d7 86 3e 1b f5 77 bc
       -0.1455061 0.05205575 0.2633633 -0.015134121
000090 cf 76 16 bd 80 5e d4 be c7 8a 09 be 17 ea 16 3f
       -0.0367344 -0.41478348 -0.13431846 0.5895094
0000a0 f5 ff bb be e4 eb 38 bd df 07 19 bf 55 45 13 bf
       -0.36718717 -0.045146838 -0.59777635 -0.5752767
0000b0 ff 19 4e 3d 19 34 cb be 65 fe 10 bf e0 3d 07 be
       0.05031776 -0.39688185 -0.56638175 -0.13207197
0000c0 ee 55 ee 3c 7c 65 78 3e a9 7b 3b 3b f8 60 f2 bd
       0.029093709 0.24257463 0.0028607643 -0.118349016
0000d0 ae 34 f9 be d1 43 86 be 04 94 1d 3f e5 ad b8 be
       -0.48673004 -0.26223615 0.6155398 -0.3607017
0000e0 ab 5b 8b bd d1 1a 14 bf 80 7d 22 bf 35 0c 13 3e
       -0.06804594 -0.5785342 -0.6347275 0.14360125
0000f0 46 af bb be 4a fe 1a bf d3 66 18 be b8 16 73 3c
       -0.3665716 -0.60544264 -0.14882974 0.01483696
000100 30 10 5b 3e 38 49 9a bc 5c 16 6f bd 85 68 de be
       0.21392894 -0.018833742 -0.058370933 -0.43439117
000110 0d 8e 06 be d9 db 14 3f 19 aa bc be 41 79 60 bd
       -0.13140126 0.5814796 -0.36848524 -0.054803137
000120 82 7c 19 bf 0f f7 13 bf 94 57 b2 3d b0 45 aa be
       -0.5995561 -0.57798856 0.087081105 -0.33256292
000130 43 a8 1d bf 42 08 3c be f9 aa 8b 3d 20 e1 a8 bc
       -0.6158487 -0.18362525 0.0681972 -0.02061516
000140 24 ed 8e bd 7f 3e b3 bc b0 57 b6 be e5 da 27 be
       -0.06978825 -0.021880386 -0.35613775 -0.16392095
000150 3f f3 fe 3e 24 e2 ab be 6c b5 b8 bd 8a e0 1a bf
       0.49794957 -0.3357097 -0.090189785 -0.6049887
000160 a0 7c f3 be dd 45 ce 3d 88 d7 a6 be 57 f0 f1 be
       -0.4755602 0.10071919 -0.32586312 -0.47253677
000170 da 13 27 be fc ee 5f 3d 73 1e 7e be 8c d4 14 bd
       -0.16316167 0.054671273 -0.24816303 -0.036335513
000180 90 ab a6 3a 97 d5 b0 be a6 81 e8 3c 33 41 b3 3e
       0.0012715925 -0.34537956 0.028382134 0.3501068
000190 b3 45 b2 be bb c6 54 be bc 88 29 bf b9 a1 a6 be
       -0.348188 -0.20778935 -0.66224265 -0.3254526
0001a0 1d 96 d8 3d db a9 a2 3d 5f 95 cb 3e 8e 07 8f 3e
       0.10575507 0.079425536 0.397624 0.2793545
0001b0 55 25 a6 3e 74 e1 9c be 3d dc 73 3f 6e ba 07 3e
       0.32450357 -0.30640757 0.9525793 0.13254711
0001c0 6f c2 69 be 8e 48 c5 3e 8f 7c b9 3d 61 36 d5 be
       -0.22828077 0.38531917 0.09056961 -0.4164305
0001d0 7b 4c 71 bf 07 28 d1 bd d2 9e 02 3e ac 7f 63 3c
       -0.94257325 -0.10212713 0.12755898 0.01388542
0001e0 75 57 0e 3e 91 46 d6 3e 79 d3 c0 3d 5d 5b 4e 3e
       0.1390055 0.41850713 0.09415335 0.2015204
0001f0 d4 5a 0a bf d0 74 f3 3e ac 43 e8 3c 8d 41 82 bd
       -0.5404484 0.47550058 0.028352581 -0.06360159
000200 f8 ea 8b 3e 80 ae fa bd 93 6c 8f be d0 2e 07 bf
       0.27327704 -0.122403145 -0.28012523 -0.52805805
000210 6c c4 b7 bd ca 90 68 3e 86 58 d1 3d ef cf c6 3d
       -0.089730114 0.22711483 0.10221963 0.09707629
000220 9f ef 89 3e f3 11 48 3d 69 93 c3 3d 17 eb b6 be
       0.2694063 0.048845243 0.09549601 -0.35726234
000230 8e 29 57 3e 59 35 99 bc d9 03 5c bc 71 94 fb 3d
       0.21011946 -0.018702196 -0.013428652 0.12284172
000240 49 0c 9c bd 93 87 10 be 6d ae 76 be b7 4e 40 bd
       -0.07619531 -0.14114217 -0.24089976 -0.04695007
000250 29 70 f1 3d f4 40 b1 3d b8 11 9d bb 6a 29 2c 3c
       0.11788971 0.08654967 -0.004793372 0.010507921
000260 3e 41 68 3b 07 ae 53 3c eb 3f dc 3b 9e 05 fc 3b
       0.0035439278 0.012919909 0.006721487 0.0076910993
000270 fb 39 32 3b dc 63 13 bb 23 61 75 3c 09 e2 ec bb
       0.0027195204 -0.002248994 0.0149767725 -0.007229094
000280 f0 c2 bb bb de 99 3d ba b3 b0 e6 ba 98 50 ef 3b
       -0.0057300255 -0.0007232706 -0.0017600268 0.0073033087
000290 a8 cb 24 bc 27 d1 ce bd a3 36 8b be 87 54 03 bd
       -0.010058321 -0.100984864 -0.27190122 -0.032063033
0002a0 de d6 8f bd 5e 89 b2 3e d3 9c 1a be ca 1a e8 3c
       -0.070234045 0.34870428 -0.15098886 0.028333087
0002b0 5e c0 cf bb 50 9f 0d be 83 44 78 3d d9 f7 f9 3d
       -0.0063400706 -0.13830304 0.060612213 0.12205476
0002c0 fc d0 43 3e ec 33 69 3d ed b5 bf bd 08 42 a0 bd
       0.1912269 0.056934282 -0.093608715 -0.078250945
0002d0 46 81 3f be 47 3a b5 be ca c6 8d bd 3b bf a5 bd
       -0.18701658 -0.35396025 -0.06922682 -0.08093115
0002e0 02 de f5 3e e1 5c 85 be 32 d9 fd bc d0 8e 63 bc
       0.4802094 -0.26047423 -0.030987356 -0.01388903
0002f0 70 74 10 be 3e df f9 3d 81 66 45 3e 70 1c a4 3e
       -0.14106917 0.12200783 0.19277383 0.32052946
000300 75 08 ab 3d 9f 4f 53 be 7c 3c 20 be fc f5 0c be
       0.083512224 -0.20635842 -0.15648073 -0.1376571
000310 29 da 96 be d9 8b 22 be 4c 9e 39 be 52 64 c0 3e
       -0.29463318 -0.1587366 -0.18126792 0.37576538
000320 ef 1e 04 bf 10 e1 05 be 5c 72 9b 3d 43 e5 64 be
       -0.516097 -0.13074136 0.07590172 -0.22353081
000330 8a e8 c6 3c f8 73 82 3e 3f 43 0b 3f 38 5a c2 3d
       0.024280805 0.25479102 0.54399484 0.09489864
000340 05 e5 45 be e6 1b 8b bd 5e 25 fc be 52 9a 08 3e
       -0.19325645 -0.067924306 -0.4924726 0.13340119
000350 09 94 03 bf 43 81 71 3e 36 62 f1 3e cf 94 9a be
       -0.5139776 0.23584466 0.47145241 -0.30191657
000360 cf 37 05 bf 00 f3 37 bb 99 d1 d0 3d b6 93 a7 be
       -0.5203828 -0.0028068423 0.101962276 -0.32729882
000370 6f c3 b4 3e 25 a5 36 bf 67 52 18 be b5 df e2 3e
       0.35305354 -0.7134574 -0.14875184 0.443113
000380 62 d9 e8 bd a5 3e f2 be 68 91 00 3d 55 43 28 bf
       -0.113695875 -0.4731342 0.03138867 -0.6572774
000390 06 7a a3 3e ae d6 29 3e 81 b7 fc be e9 f4 fb be
       0.31929034 0.165858 -0.49358752 -0.4921029
0003a0 61 ca 02 3e 97 c3 85 3e 38 10 5d be fa 6f c0 3e
       0.12772514 0.26125786 -0.21588218 0.3758543
0003b0 04 3c 30 bf 43 0e 3a be 9a e0 c6 3e c8 b0 7c be
       -0.68841577 -0.18169503 0.38843232 -0.24676812
0003c0 4c 04 04 bf 9c a8 0c 3d db d7 38 bf ca e5 c8 3e
       -0.51569057 0.034340486 -0.7220437 0.39237815
0003d0 ef 8b 16 3e 7d 63 15 bf de ae f4 be 9f c7 2e 3e
       0.14701818 -0.5835493 -0.47789663 0.17068337
0003e0 87 aa ca 3e 72 8e 0c be e8 d9 c7 3e be 6c 2a bf
       0.39583227 -0.13726214 0.39033437 -0.6657218
0003f0 19 b8 4e be 4f b3 af 3e 9c 64 c1 be 04 aa fe be
       -0.20187415 0.3431649 -0.3777207 -0.49739087

seq.4.bias f4 [21]
000000 7e cc 9b 3e 84 a4 38 3e c5 3d 97 3e ff b5 d1 3e
       0.30429453 0.18031508 0.29539314 0.40959165
000010 db af 9d 3e c3 57 5d 3e eb a1 85 3e 0f b3 65 bd
       0.3079823 0.2161551 0.26100096 -0.056078967
000020 51 dc a9 be d5 50 6e be e8 65 8b 3c f1 60 8a 3e
       -0.331759 -0.23273022 0.017016366 0.27027085
000030 79 a4 f1 3e f4 0c 7e 3e e5 1a 45 3e 55 26 17 bc
       0.47195795 0.24809629 0.1924854 -0.009225448
000040 ed a4 32 3d ab 90 a3 bd 75 f5 53 bd a7 5a f9 bc
       0.043614317 -0.079865776 -0.051747758 -0.030438734
000050 41 d1 2e 3e
       0.17072012
