save/templateModel1.pth (torch_old, 3233 bytes, 6 tensors)

seq.0.weight f4 [10, 2]
1.3071651 -0.92630345 -1.2660633 0.95342344 -0.6382691 1.8476624 0.70017165 0.91819173
1.1851964 0.52511925 0.41531062 0.5732451 0.4806551 -0.39064735 -0.041682467 -0.31969085
0.7927106 0.33323774 1.3243346 0.5963304
00000000: 3051 a73f 3922 6dbf 5d0e a2bf 8f13 743f
00000010: 9b65 23bf 3480 ec3f 733e 333f 9d0e 6b3f
00000020: 84b4 973f 376e 063f 98a3 d43e 31c0 123f
00000030: 6d18 f63e ee02 c8be 3cbb 2abd 85ae a3be
00000040: 15ef 4a3f 239e aa3e cc83 a93f 1ca9 183f

seq.0.bias f4 [10]
-0.06780603 -0.54930764 -0.1350803 -0.020920446 -0.97944784 -0.49623173 0.94815683 0.4153946
-1.206777 -0.1279003
00000000: e3dd 8abd 6d9f 0cbf 7d52 0abe 5b61 abbc
00000010: 18bd 7abf 1612 febe 68ba 723f 9aae d43e
00000020: ab77 9abf 4cf8 02be

seq.2.weight f4 [15, 10]
-0.13281122 0.14151824 1.0008256 -0.40194282 -1.9261768 -0.4878215 0.874854 0.4956308
-0.7129557 -0.14473596 1.7266921 0.15397619 0.85484105 -0.41422918 -0.7011299 -0.9435566
-0.43321246 0.05884484 -0.16370903 -0.48367673 -0.05765194 -0.94050395 -0.6083963 0.23497026
0.9357474 0.22098857 -0.23606709 -0.1610528 0.31646186 0.23978746 -0.8220173 0.2803373
0.75357765 0.5802972 -0.33359808 -0.1726383 0.22199452 0.3641323 -0.5863855 0.061725546
-0.21397686 0.33908358 0.732965 0.12536469 0.23466985 -0.014109927 0.1609671 0.19611965
-0.42500615 0.26141834 -0.71031606 -0.53518575 -0.6196429 0.06820806 -0.11230504 0.122702755
-0.35438508 0.15927587 -0.0661181 0.13893707 0.89921004 -0.24559617 0.5399884 -0.49221838
-0.738536 -0.50081533 0.036954153 -0.06415702 -0.21383104 -0.5835023 0.68295383 -0.7051098
-0.117636606 0.40089175 0.43208086 0.51842844 0.4756935 0.08958349 0.31848863 0.56843746
0.35466823 1.2864897 0.8667343 0.023082022 0.6363573 1.3913319 -0.83999825 -0.55375934
0.5125884 -0.4698599 -0.6526106 0.2987061 0.6470324 0.05149247 0.45497748 0.28099698
-0.74396145 -0.21866813 1.0221086 0.11921483 0.03920701 1.0826218 0.6934106 -0.10240011
-0.64984107 0.1743869 -0.27798617 -0.16216353 -0.27277848 -0.41042766 -0.37652883 -0.21733913
-1.2446829 0.53737545 1.44169 0.7162297 -0.8208717 -0.7035734 3.5069704 0.17324093
-0.006733685 2.5013993 0.6406991 -0.41635612 -0.92866385 -0.021787625 -1.4655553 -0.6895868
0.53577 -1.3050427 -0.014363786 0.2941472 0.5954879 0.38920584 -1.1850114 -0.5276363
-0.6363202 -0.4754076 -0.4474962 0.09041097 -1.0311915 0.20956188 0.6495492 1.3751024
0.55656064 1.2247652 -0.06592896 -0.08663558 -0.013874332 0.7564777
00000000: aaff 07be 28ea 103e 0e1b 803f 73cb cdbe
00000010: f68c f6bf bdc3 f9be 6ff6 5f3f 52c3 fd3e
00000020: 4484 36bf aa35 14be 3f04 dd3f efab 1d3e
00000030: ddd6 5a3f d915 d4be 407d 33bf ed8c 71bf
00000040: 06ce ddbe 4907 713d 57a3 27be 7aa4 f7be
00000050: 7124 6cbd dec4 70bf dcbf 1bbf 0b9c 703e
00000060: 248d 6f3f d44a 623e 92bb 71be 06eb 24be
00000070: 4a07 a23e d88a 753e ba6f 52bf 5f88 8f3e
00000080: 77ea 403f 5b8e 143f 5ecd aabe 18c8 30be
00000090: 8852 633e 8c6f ba3e 5c1d 16bf edd3 7c3d
000000a0: c01c 5bbe 5d9c ad3e 98a3 3b3f 9a5f 003e
000000b0: 4b4d 703e 532d 67bc 8fd4 243e 97d3 483e
000000c0: 689a d9be a0d8 853e 46d7 35bf ef01 09bf
000000d0: eba0 1ebf abb0 8b3d 2f00 e6bd 954b fb3d
000000e0: f671 b5be 3719 233e ed68 87bd 8545 0e3e
000000f0: a132 663f 907d 7bbe ae3c 0a3f 0c04 fcbe
00000100: b210 3dbf 6f35 00bf 3d5d 173d c164 83bd
00000110: 86f6 5abe 6860 15bf 10d6 2e3f 1382 34bf
00000120: 76eb f0bd af41 cd3e b439 dd3e bab7 043f
00000130: 198e f33e 8c77 b73d f110 a33e 1e85 113f
00000140: 1397 b53e b2ab a43f 4de2 5d3f 8216 bd3c
00000150: 50e8 223f 2a17 b23f 200a 57bf 2cc3 0dbf
00000160: fe38 033f 7a91 f0be 7d11 27bf 02f0 983e
00000170: eaa3 253f c5e9 523d cff2 e83e d6de 8f3e
00000180: 4274 3ebf 8aea 5fbe 74d4 823f e826 f43d
00000190: 8897 203d 5a93 8a3f 5b83 313f 26b7 d1bd
000001a0: fc5b 26bf 7b92 323e 3454 8ebe 320e 26be
000001b0: 9fa9 8bbe 9323 d2be 63c8 c0be 268e 5ebe
000001c0: c551 9fbf 7091 093f 4c89 b83f d45a 373f
000001d0: a624 52bf 631d 34bf 3472 6040 1266 313e
000001e0: 3ea6 dcbb ed16 2040 db04 243f a12c d5be
000001f0: eabc 6dbf f67b b2bc 5197 bbbf c388 30bf
00000200: 3928 093f a40b a7bf 1656 6bbc 769a 963e
00000210: e571 183f fd45 c73e 74ae 97bf 2c13 07bf
00000220: e1e5 22bf a068 f3be 391e e5be 6329 b93d
00000230: 15fe 83bf 6497 563e db48 263f 5b03 b03f
00000240: c27a 0e3f 1bc5 9c3f c305 87bd ff6d b1bd
00000250: 2b51 63bc 86a8 413f

seq.2.bias f4 [15]
0.45194036 -0.26225305 -0.23879108 0.21534626 -0.16836089 0.357274 -0.4488341 -0.1261668
-0.89504766 -0.5078978 -0.18772706 -0.83801854 -0.7386842 -0.26796663 0.35604087
00000000: ba64 e73e 0846 86be a685 74be bb83 5c3e
00000010: cc66 2cbe 9eec b63e 95cd e5be df31 01be
00000020: d821 65bf 9705 02bf 863b 40be 6288 56bf
00000030: 681a 3dbf ec32 89be fd4a b63e

seq.4.weight f4 [21, 15]
-0.3082273 -0.5116181 -0.09225298 0.16110688 -0.21219063 0.0404613 -0.15881489 -0.33790788
-0.31745198 0.45092887 -0.12312062 -0.43462658 -0.3596389 -0.34760153 0.054246392 -0.35350883
-0.29164252 -0.04464477 0.21469718 -0.011597863 0.036037665 -0.3585448 -0.4060032 -0.38524628
0.5299377 -0.20239839 -0.38564718 -0.3892038 -0.3971774 -0.032464948 -0.26813605 -0.45347923
0.008274128 0.2289988 -0.025242275 -0.23994733 -0.26176658 -0.3913263 -0.45246595 0.60588753
-0.30188936 -0.37993714 -0.3652059 -0.3958257 -0.05179354 -0.33666065 -0.33010763 -0.021724986
0.28451654 -0.068336196 -0.2398258 -0.38942572 -0.4369415 -0.49006236 0.6416956 -0.3363525
-0.33247194 -0.3517931 -0.3834117 -0.068683624 -0.37380207 -0.28079078 -0.04227501 0.25397232
0.017416025 -0.07804564 -0.39229664 -0.4314087 -0.452409 0.59247327 -0.2682566 -0.35715637
-0.37165314 -0.39538184 -0.07096076 -0.28791994 -0.43556795 -0.026336925 0.20817052 -0.09359968
-0.1394461 -0.2624883 -0.38993317 -0.39154932 0.5434614 -0.22870609 -0.3919737 -0.36915034
-0.4083592 -0.012628499 -0.26401508 -0.66798466 -0.10106799 0.05976519 -0.09819697 -0.087104306
-0.067372605 -0.34636065 -0.35030246 0.47859365 -0.1482926 -0.4321712 -0.33111683 -0.36292785
0.043451373 0.18284066 0.44100147 0.14526889 -0.10095109 -0.41483733 -0.25693327 -0.16983408
-0.113510445 0.1938897 0.04031201 -0.2046032 -0.029733177 -0.08864992 0.075711906 0.19980556
0.07548697 0.2320298 0.023318266 -0.14845735 -0.13654949 -0.068774134 -0.035942208 -0.06283209
0.13707927 -0.030015834 -0.0723462 -0.02312677 -0.046372186 0.055294726 0.12432453 0.0467959
0.07045855 0.017007474 -0.078234166 -0.07456032 -0.13524093 -0.023170594 -0.057204016 0.060716156
0.0032712354 -0.045200985 -0.011778587 -0.016724532 -0.012711711 0.055077493 0.013537387 -0.011929227
0.010534974 0.0014260578 -0.0077171796 -0.0028816666 0.013601078 0.00889825 0.00059140177 0.0014540536
-0.0023081906 -0.0056370804 -0.0009446886 0.00381867 0.0031895095 -0.00052276516 -0.092829056 0.011108901
0.054816708 0.048713192 0.13937514 0.071437545 0.08189538 -0.026367653 -0.025064724 0.028950246
-0.008922567 0.0023681992 0.04714689 -0.028670957 -0.0835491 -0.215297 -0.032086764 0.11393326
0.22000101 0.26822835 0.0854417 0.10995157 -0.1135099 -0.010011544 0.11893448 0.002923183
0.0336149 -0.01125132 -0.11954295 -0.12758692 -0.43062943 -0.08578241 0.14114767 0.29517707
0.08606826 0.15031321 0.0938717 -0.14598097 -0.0286385 0.1434816 0.055227105 0.074245386
-0.09540806 -0.18380077 -0.60417134 -0.1173953 -0.50658494 0.4773724 0.49903226 -0.32629147
-0.37981454 0.05103871 0.6947394 -0.4262031 0.08968239 -0.9600723 -0.45916075 0.27490503
-0.52242035 -0.66648585 0.06900118 -0.44353178 0.6135916 0.39444885 -0.14955732 -0.4486249
0.084201746 0.59757817 -0.2926258 0.07772474 -1.1451763 -0.490769 0.392584 -0.5459302
-0.7628949 0.11851086 -0.49302202 0.5684253 0.56386894 -0.0147344535 -0.41475397 0.07798807
0.56118363 -0.26641476 0.11274111 -1.2056496 -0.51612437 0.44655606 -0.5875141 -0.75850254
00000000: f8cf 9dbe 67f9 02bf 21ef bcbd 34f9 243e
00000010: 8048 59be c0ba 253d 5fa0 22be 4302 adbe
00000020: 1189 a2be 26e0 e63e aa26 fcbd 6087 debe
00000030: 9722 b8be d4f8 b1be 7731 5e3d 1cff b4be
00000040: 2b52 95be 6fdd 36bd 94d9 5b3e f704 3ebc
00000050: 3b9c 133d 2f93 b7be a7df cfbe 003f c5be
00000060: ffa9 073f 8641 4fbe 8c73 c5be b845 c7be
00000070: d65a cbbe f7f9 04bd 2149 89be 6e2e e8be
00000080: 3590 073c a97e 6a3e e3c8 cebc c1b4 75be
00000090: 4506 86be ec5b c8be 9ea9 e7be 721b 1b3f
000000a0: 3e91 9abe 1f87 c2be 45fc babe aba9 cabe
000000b0: 7725 54bd c95e acbe de03 a9be 99f8 b1bc
000000c0: 27ac 913e d9f3 8bbd e594 75be cf62 c7be
000000d0: ccb6 dfbe 74e9 fabe 2a46 243f 6536 acbe
000000e0: c339 aabe 3a1e b4be 8a4e c4be 00aa 8cbd
000000f0: fc62 bfbe cfc3 8fbe 9028 2dbd a908 823e
00000100: 0dac 8e3c 64d6 9fbd 1bdb c8be 9ae1 dcbe
00000110: 27a2 e7be 54ac 173f ee58 89be 33dd b6be
00000120: 5249 bebe 7d6f cabe e053 91bd 3e6a 93be
00000130: c302 dfbe 89c0 d7bc a72a 553e 30b1 bfbd
00000140: f5ca 0ebe de64 86be 52a5 c7be 2779 c8be
00000150: 4920 0b3f ee31 6abe c7b0 c8be 4601 bdbe
00000160: 7514 d1be c4e7 4ebc fc2c 87be 0b01 2bbf
00000170: bcfc cebd 58cc 743d 7e1b c9bd be63 b2bd
00000180: a6fa 89bd 2f56 b1be d85a b3be 3a0a f53e
00000190: 04da 17be 8b45 ddbe 2588 a9be aed1 b9be
000001a0: 11fa 313d 953a 3b3e f2ca e13e 5ec1 143e
000001b0: 72bf cebd 8f65 d4be c28c 83be fce8 2dbe
000001c0: 2a78 e8bd 068b 463e 351e 253d 8083 51be
000001d0: fe92 f3bc 178e b5bd d80e 9b3d d499 4c3e
000001e0: ea98 9a3d 3899 6d3e f305 bf3c 3405 18be
000001f0: a1d3 0bbe 74d9 8cbd 2338 13bd 1cae 80bd
00000200: 825e 0c3e c4e3 f5bc 3f2a 94bd 5a74 bdbc
00000210: c3f0 3dbd b97c 623d dc9d fe3d 0fad 3f3d
00000220: 924c 903d 4253 8b3c 3c39 a0bd 15b3 98bd
00000230: 997c 0abe 42d0 bdbc c24e 6abd 81b1 783d
00000240: 3962 563b ab24 39bd f9fa 40bc e301 89bc
00000250: c844 50bc f098 613d ebcb 5d3c ce72 43bc
00000260: e29a 2c3c 8fea ba3a 65e0 fcbb 58da 3cbb
00000270: 0ed7 5e3c f7c9 113c 4d08 1b3a f195 be3a
00000280: 0345 17bb 42b7 b8bb fba4 77ba a742 7a3b
00000290: 1707 513b 2d0a 09ba 291d bebd 1c02 363c
000002a0: 7c87 603d 7c87 473d 5bb8 0e3e d94d 923d
000002b0: c4b8 a73d fa00 d8bc 8954 cdbc 1129 ed3c
000002c0: f52f 12bc ca33 1b3b 191d 413d 5bdf eabc
000002d0: ca1b abbd d176 5cbe 696d 03bd d755 e93d
000002e0: f247 613e 3a55 893e 0ffc ae3d 4a2e e13d
000002f0: e177 e8bd 7607 24bc ec93 f33d df92 3f3b
00000300: c7af 093d 7557 38bc efd2 f4bd 25a6 02be
00000310: 767b dcbe b0ae afbd 0489 103e 7321 973e
00000320: 8e44 b03d b5eb 193e ce3f c03d 097c 15be
00000330: 4a9b eabc d7ec 123e d135 623d f70d 983d
00000340: 4d65 c3bd 4536 3cbe f9aa 1abf f26c f0bd
00000350: 8daf 01bf 286a f43e 2881 ff3e ad0f a7be
00000360: 0d77 c2be f70d 513d 71da 313f 4b37 dabe
00000370: 67ab b73d 4cc7 75bf 1e17 ebbe 5ac0 8c3e
00000380: 57bd 05bf d19e 2abf 7e50 8d3d 9916 e3be
00000390: 5714 1d3f 33f5 c93e 8e25 19be 2ab2 e5be
000003a0: f771 ac3d e2fa 183f 0dd3 95be 262e 9f3d
000003b0: 2395 92bf 1346 fbbe c500 c93e 15c2 0bbf
000003c0: 154d 43bf d2b5 f23d 626d fcbe 5284 113f
000003d0: b759 103f c768 71bc a25a d4be 36b8 9f3d
000003e0: bba9 0f3f 8467 88be d0e4 e63d ba52 9abf
000003f0: ba20 04bf ffa2 e43e 5367 16bf 392d 42bf

seq.4.bias f4 [21]
0.083253615 0.22050875 0.051025704 0.26773873 0.3032545 0.09998251 0.08654444 -0.109517865
0.030063948 0.051024858 -0.04496821 -0.18778487 -0.10624581 0.063338414 0.11914359 -0.053955443
0.09472865 -0.15154299 -0.18935986 -0.07704756 0.283078
00000000: df80 aa3d 0ccd 613e 5400 513d 0d15 893e
00000010: 2c44 9b3e a1c3 cc3d 363e b13d e74a e0bd
00000020: ab48 f63c 71ff 503d 9630 38bd ad4a 40be
00000030: 6797 d9bd 92b7 813d 8e01 f43d 6200 5dbd
00000040: 1801 c23d 162e 1bbe 8de7 41be 1ccb 9dbd
00000050: 9aef 903e
